ID,losses,accuracies,best_train_accuracy,best_dev_accuracy,best_test_accuracy,model_name,model,runtime,PID,timestamp
0,"[… ","[… ",0.5614466292134831,0.4677565849227975,0.46923076923076923,CAETreeLSTMClassifier,"TreeLSTMClassifier(
  (embed): Embedding(20727, 300, padding_idx=1)
  (treelstm): TreeLSTM(
    (reduce): TreeLSTMCell(300, 150)
    (proj_x): Linear(in_features=300, out_features=150, bias=True)
    (proj_x_gate): Linear(in_features=300, out_features=150, bias=True)
    (buffers_dropout): Dropout(p=0.5, inplace=False)
  )
  (output_layer): Sequential(
    (0): Dropout(p=0.5, inplace=False)
    (1): Linear(in_features=150, out_features=5, bias=True)
  )
)",816.8772280216217,41091,2024-12-09 17:20:21.872482
1,"[… ","[… ",0.5902387640449438,0.4677565849227975,0.4597285067873303,CAETreeLSTMClassifier,"TreeLSTMClassifier(
  (embed): Embedding(20727, 300, padding_idx=1)
  (treelstm): TreeLSTM(
    (reduce): TreeLSTMCell(300, 150)
    (proj_x): Linear(in_features=300, out_features=150, bias=True)
    (proj_x_gate): Linear(in_features=300, out_features=150, bias=True)
    (buffers_dropout): Dropout(p=0.5, inplace=False)
  )
  (output_layer): Sequential(
    (0): Dropout(p=0.5, inplace=False)
    (1): Linear(in_features=150, out_features=5, bias=True)
  )
)",835.7758040428162,41091,2024-12-09 17:34:17.720804
2,"[… ","[… ",0.5558286516853933,0.4695731153496821,0.4819004524886878,CAETreeLSTMClassifier,"TreeLSTMClassifier(
  (embed): Embedding(20727, 300, padding_idx=1)
  (treelstm): TreeLSTM(
    (reduce): TreeLSTMCell(300, 150)
    (proj_x): Linear(in_features=300, out_features=150, bias=True)
    (proj_x_gate): Linear(in_features=300, out_features=150, bias=True)
    (buffers_dropout): Dropout(p=0.5, inplace=False)
  )
  (output_layer): Sequential(
    (0): Dropout(p=0.5, inplace=False)
    (1): Linear(in_features=150, out_features=5, bias=True)
  )
)",844.9702877998352,41091,2024-12-09 17:48:22.756079
3,"[… ","[… ",0.5585205992509363,0.4641235240690282,0.481447963800905,TreeLSTMClassifier,"TreeLSTMClassifier(
  (embed): Embedding(20727, 300, padding_idx=1)
  (treelstm): TreeLSTM(
    (reduce): TreeLSTMCell(300, 150)
    (proj_x): Linear(in_features=300, out_features=150, bias=True)
    (proj_x_gate): Linear(in_features=300, out_features=150, bias=True)
    (buffers_dropout): Dropout(p=0.5, inplace=False)
  )
  (output_layer): Sequential(
    (0): Dropout(p=0.5, inplace=False)
    (1): Linear(in_features=150, out_features=5, bias=True)
  )
)",772.5779759883881,41091,2024-12-09 18:01:15.399050
4,"[… ","[… ",0.5191947565543071,0.4604904632152589,0.4755656108597285,TreeLSTMClassifier,"TreeLSTMClassifier(
  (embed): Embedding(20727, 300, padding_idx=1)
  (treelstm): TreeLSTM(
    (reduce): TreeLSTMCell(300, 150)
    (proj_x): Linear(in_features=300, out_features=150, bias=True)
    (proj_x_gate): Linear(in_features=300, out_features=150, bias=True)
    (buffers_dropout): Dropout(p=0.5, inplace=False)
  )
  (output_layer): Sequential(
    (0): Dropout(p=0.5, inplace=False)
    (1): Linear(in_features=150, out_features=5, bias=True)
  )
)",771.6151480674744,41091,2024-12-09 18:14:07.079414
5,"[… ","[… ",0.565191947565543,0.46503178928247046,0.4687782805429864,TreeLSTMClassifier,"TreeLSTMClassifier(
  (embed): Embedding(20727, 300, padding_idx=1)
  (treelstm): TreeLSTM(
    (reduce): TreeLSTMCell(300, 150)
    (proj_x): Linear(in_features=300, out_features=150, bias=True)
    (proj_x_gate): Linear(in_features=300, out_features=150, bias=True)
    (buffers_dropout): Dropout(p=0.5, inplace=False)
  )
  (output_layer): Sequential(
    (0): Dropout(p=0.5, inplace=False)
    (1): Linear(in_features=150, out_features=5, bias=True)
  )
)",794.9668517112732,41091,2024-12-09 18:27:22.110354
