ID,losses,accuracies,best_train_accuracy,best_dev_accuracy,best_test_accuracy,model_name,model,runtime,PID,timestamp
0,"[… ","[… ",0.4088249063670412,0.29791099000908267,0.27828054298642535,BOW,"BOW(
  (embed): Embedding(20727, 5)
)",9.903743982315063,62980,2024-12-10 13:43:17.228301
1,"[… ","[… ",0.4157303370786517,0.2888283378746594,0.28009049773755657,BOW,"BOW(
  (embed): Embedding(20727, 5)
)",9.70318078994751,62980,2024-12-10 13:43:26.934195
2,"[… ","[… ",0.4066011235955056,0.26612170753860126,0.27828054298642535,BOW,"BOW(
  (embed): Embedding(20727, 5)
)",9.88076901435852,62980,2024-12-10 13:43:36.816240
3,"[2639.507994663436, 2344.52679839707, 2107.130946966354, 1983.8815307375044, 1954.4598709456623, 1899.6970612357836, 1931.9068398550153, 1895.447044685483, 1690.7504895050079, 1598.9316182206385]","[0.25522252497729336, 0.24159854677565848, 0.27338782924613986, 0.2688465031789282, 0.27520435967302453, 0.28610354223433243, 0.3024523160762943, 0.2997275204359673, 0.3106267029972752, 0.3097184377838329]",0.4226357677902622,0.3106267029972752,0.3226244343891403,CBOW,"CBOW(
  (embed): Embedding(20727, 300)
  (linear): Linear(in_features=300, out_features=5, bias=True)
)",75.35264301300049,62980,2024-12-10 13:44:52.220227
4,"[2680.8330654900055, 2305.7299849248957, 2115.5254049040377, 2032.16512377467, 1935.7590073961765, 1948.330059660133, 1877.352017535828, 1925.3748821513727, 1711.9944385802373, 1578.9740563151427]","[0.26430517711171664, 0.254314259763851, 0.2652134423251589, 0.26612170753860126, 0.29155313351498635, 0.32334241598546776, 0.3115349682107175, 0.29155313351498635, 0.33060853769300635, 0.32334241598546776]",0.4178370786516854,0.33060853769300635,0.31266968325791855,CBOW,"CBOW(
  (embed): Embedding(20727, 300)
  (linear): Linear(in_features=300, out_features=5, bias=True)
)",74.81657218933105,62980,2024-12-10 13:46:07.087620
5,"[2709.116851009894, 2289.1625768244267, 2083.9583146665245, 2011.7482746365713, 1942.5496455840766, 1984.4971501231194, 1869.438960853964, 1863.0178592968732, 1723.3549812114798, 1574.3229300403036]","[0.24341507720254316, 0.25703905540417804, 0.25703905540417804, 0.27157129881925524, 0.27883742052679383, 0.298819255222525, 0.28247048138056313, 0.2924613987284287, 0.3069936421435059, 0.3042688465031789]",0.41151685393258425,0.3069936421435059,0.3036199095022624,CBOW,"CBOW(
  (embed): Embedding(20727, 300)
  (linear): Linear(in_features=300, out_features=5, bias=True)
)",76.24087285995483,62980,2024-12-10 13:47:23.381737
6,"[1507.0588151216507, 1379.7948234677315, 1330.8947325348854, 1339.478797197342, 1310.095038473606, 1320.6935816705227, 1280.6801002919674, 1303.8402793258429, 1165.8313083052635, 1117.2320957034826]","[0.371480472297911, 0.3869209809264305, 0.40236148955495005, 0.3960036330608538, 0.4396003633060854, 0.4323342415985468, 0.42415985467756584, 0.410535876475931, 0.4250681198910082, 0.40417801998183467]",0.49414794007490637,0.4396003633060854,0.41809954751131223,DeepCBOW,"DeepCBOW(
  (embed): Embedding(20727, 300)
  (output_layer): Sequential(
    (0): Linear(in_features=300, out_features=100, bias=True)
    (1): Tanh()
    (2): Linear(in_features=100, out_features=100, bias=True)
    (3): Tanh()
    (4): Linear(in_features=100, out_features=5, bias=True)
  )
)",80.3962550163269,62980,2024-12-10 13:48:43.840800
7,"[1515.621892541647, 1396.4123020768166, 1329.634816274047, 1323.8791039139032, 1295.5131966918707, 1307.7730703651905, 1296.796477586031, 1303.731450676918, 1251.5501875281334, 1080.7283151298761]","[0.35240690281562215, 0.36693914623069934, 0.41689373297002724, 0.4296094459582198, 0.4087193460490463, 0.40236148955495005, 0.4232515894641235, 0.39872842870118075, 0.4296094459582198, 0.4287011807447775]",0.48092228464419473,0.4296094459582198,0.42036199095022625,DeepCBOW,"DeepCBOW(
  (embed): Embedding(20727, 300)
  (output_layer): Sequential(
    (0): Linear(in_features=300, out_features=100, bias=True)
    (1): Tanh()
    (2): Linear(in_features=100, out_features=100, bias=True)
    (3): Tanh()
    (4): Linear(in_features=100, out_features=5, bias=True)
  )
)",79.99566698074341,62980,2024-12-10 13:50:03.889058
8,"[1476.0494316220284, 1407.2749241888523, 1373.0204011797905, 1320.2090108692646, 1332.956740885973, 1296.8832446038723, 1265.4963216781616, 1288.9771052896976, 1217.0157826542854, 1085.8682539239526]","[0.34877384196185285, 0.41326067211625794, 0.3823796548592189, 0.3823796548592189, 0.4187102633969119, 0.3996366939146231, 0.4114441416893733, 0.3923705722070845, 0.43142597638510444, 0.371480472297911]",0.5369850187265918,0.43142597638510444,0.4294117647058823,DeepCBOW,"DeepCBOW(
  (embed): Embedding(20727, 300)
  (output_layer): Sequential(
    (0): Linear(in_features=300, out_features=100, bias=True)
    (1): Tanh()
    (2): Linear(in_features=100, out_features=100, bias=True)
    (3): Tanh()
    (4): Linear(in_features=100, out_features=5, bias=True)
  )
)",85.512864112854,62980,2024-12-10 13:51:29.455960
9,"[… ","[… ",0.5104166666666666,0.4713896457765668,0.4457013574660634,LSTMClassifier,"LSTMClassifier(
  (embed): Embedding(20727, 300, padding_idx=1)
  (rnn): MyLSTMCell(300, 168)
  (output_layer): Sequential(
    (0): Dropout(p=0.5, inplace=False)
    (1): Linear(in_features=168, out_features=5, bias=True)
  )
)",224.99069809913635,62980,2024-12-10 13:55:14.508807
10,"[… ","[… ",0.5341760299625468,0.4641235240690282,0.4642533936651584,LSTMClassifier,"LSTMClassifier(
  (embed): Embedding(20727, 300, padding_idx=1)
  (rnn): MyLSTMCell(300, 168)
  (output_layer): Sequential(
    (0): Dropout(p=0.5, inplace=False)
    (1): Linear(in_features=168, out_features=5, bias=True)
  )
)",233.3942232131958,62980,2024-12-10 13:59:07.955799
11,"[… ","[… ",0.5402621722846442,0.47048138056312444,0.47285067873303166,LSTMClassifier,"LSTMClassifier(
  (embed): Embedding(20727, 300, padding_idx=1)
  (rnn): MyLSTMCell(300, 168)
  (output_layer): Sequential(
    (0): Dropout(p=0.5, inplace=False)
    (1): Linear(in_features=168, out_features=5, bias=True)
  )
)",234.50528693199158,62980,2024-12-10 14:03:02.522185
12,"[… ","[… ",0.5723314606741573,0.4750227066303361,0.47194570135746605,TreeLSTMClassifier,"TreeLSTMClassifier(
  (embed): Embedding(20727, 300, padding_idx=1)
  (treelstm): TreeLSTM(
    (reduce): TreeLSTMCell(300, 150)
    (proj_x): Linear(in_features=300, out_features=150, bias=True)
    (proj_x_gate): Linear(in_features=300, out_features=150, bias=True)
    (buffers_dropout): Dropout(p=0.5, inplace=False)
  )
  (output_layer): Sequential(
    (0): Dropout(p=0.5, inplace=False)
    (1): Linear(in_features=150, out_features=5, bias=True)
  )
)",705.4907078742981,62980,2024-12-10 14:14:48.066749
13,"[… ","[… ",0.4952013108614232,0.45776566757493187,0.4638009049773756,TreeLSTMClassifier,"TreeLSTMClassifier(
  (embed): Embedding(20727, 300, padding_idx=1)
  (treelstm): TreeLSTM(
    (reduce): TreeLSTMCell(300, 150)
    (proj_x): Linear(in_features=300, out_features=150, bias=True)
    (proj_x_gate): Linear(in_features=300, out_features=150, bias=True)
    (buffers_dropout): Dropout(p=0.5, inplace=False)
  )
  (output_layer): Sequential(
    (0): Dropout(p=0.5, inplace=False)
    (1): Linear(in_features=150, out_features=5, bias=True)
  )
)",717.1725628376007,62980,2024-12-10 14:26:45.316311
14,"[… ","[… ",0.568000936329588,0.4550408719346049,0.4669683257918552,TreeLSTMClassifier,"TreeLSTMClassifier(
  (embed): Embedding(20727, 300, padding_idx=1)
  (treelstm): TreeLSTM(
    (reduce): TreeLSTMCell(300, 150)
    (proj_x): Linear(in_features=300, out_features=150, bias=True)
    (proj_x_gate): Linear(in_features=300, out_features=150, bias=True)
    (buffers_dropout): Dropout(p=0.5, inplace=False)
  )
  (output_layer): Sequential(
    (0): Dropout(p=0.5, inplace=False)
    (1): Linear(in_features=150, out_features=5, bias=True)
  )
)",737.8034629821777,62980,2024-12-10 14:39:03.191262
