ID,losses,accuracies,best_train_accuracy,best_dev_accuracy,best_test_accuracy,model_name,model,runtime,PID,timestamp
0,"[… ","[… ",0.7986766358425774,0.4940962761126249,0.4751131221719457,SubTreeTreeLSTMClassifier,"TreeLSTMClassifier(
  (embed): Embedding(20727, 300, padding_idx=1)
  (treelstm): TreeLSTM(
    (reduce): TreeLSTMCell(300, 150)
    (proj_x): Linear(in_features=300, out_features=150, bias=True)
    (proj_x_gate): Linear(in_features=300, out_features=150, bias=True)
    (buffers_dropout): Dropout(p=0.5, inplace=False)
  )
  (output_layer): Sequential(
    (0): Dropout(p=0.5, inplace=False)
    (1): Linear(in_features=150, out_features=5, bias=True)
  )
)",375.20891284942627,58515,2024-12-10 12:17:12.686935
1,"[… ","[… ",0.8000483392030937,0.5004541326067211,0.48778280542986424,SubTreeTreeLSTMClassifier,"TreeLSTMClassifier(
  (embed): Embedding(20727, 300, padding_idx=1)
  (treelstm): TreeLSTM(
    (reduce): TreeLSTMCell(300, 150)
    (proj_x): Linear(in_features=300, out_features=150, bias=True)
    (proj_x_gate): Linear(in_features=300, out_features=150, bias=True)
    (buffers_dropout): Dropout(p=0.5, inplace=False)
  )
  (output_layer): Sequential(
    (0): Dropout(p=0.5, inplace=False)
    (1): Linear(in_features=150, out_features=5, bias=True)
  )
)",408.7588748931885,58515,2024-12-10 12:24:01.522758
2,"[… ","[… ",0.7910428084449216,0.4977293369663942,0.47828054298642536,SubTreeTreeLSTMClassifier,"TreeLSTMClassifier(
  (embed): Embedding(20727, 300, padding_idx=1)
  (treelstm): TreeLSTM(
    (reduce): TreeLSTMCell(300, 150)
    (proj_x): Linear(in_features=300, out_features=150, bias=True)
    (proj_x_gate): Linear(in_features=300, out_features=150, bias=True)
    (buffers_dropout): Dropout(p=0.5, inplace=False)
  )
  (output_layer): Sequential(
    (0): Dropout(p=0.5, inplace=False)
    (1): Linear(in_features=150, out_features=5, bias=True)
  )
)",433.2564628124237,58515,2024-12-10 12:31:14.858245
3,"[… ","[… ",0.5626170411985019,0.4695731153496821,0.45610859728506786,TreeLSTMClassifier,"TreeLSTMClassifier(
  (embed): Embedding(20727, 300, padding_idx=1)
  (treelstm): TreeLSTM(
    (reduce): TreeLSTMCell(300, 150)
    (proj_x): Linear(in_features=300, out_features=150, bias=True)
    (proj_x_gate): Linear(in_features=300, out_features=150, bias=True)
    (buffers_dropout): Dropout(p=0.5, inplace=False)
  )
  (output_layer): Sequential(
    (0): Dropout(p=0.5, inplace=False)
    (1): Linear(in_features=150, out_features=5, bias=True)
  )
)",766.1582841873169,58515,2024-12-10 12:44:03.854836
4,"[… ","[… ",0.5675327715355806,0.45958219800181654,0.467420814479638,TreeLSTMClassifier,"TreeLSTMClassifier(
  (embed): Embedding(20727, 300, padding_idx=1)
  (treelstm): TreeLSTM(
    (reduce): TreeLSTMCell(300, 150)
    (proj_x): Linear(in_features=300, out_features=150, bias=True)
    (proj_x_gate): Linear(in_features=300, out_features=150, bias=True)
    (buffers_dropout): Dropout(p=0.5, inplace=False)
  )
  (output_layer): Sequential(
    (0): Dropout(p=0.5, inplace=False)
    (1): Linear(in_features=150, out_features=5, bias=True)
  )
)",792.2384281158447,58515,2024-12-10 12:57:16.174705
5,"[… ","[… ",0.5774812734082397,0.4713896457765668,0.47918552036199097,TreeLSTMClassifier,"TreeLSTMClassifier(
  (embed): Embedding(20727, 300, padding_idx=1)
  (treelstm): TreeLSTM(
    (reduce): TreeLSTMCell(300, 150)
    (proj_x): Linear(in_features=300, out_features=150, bias=True)
    (proj_x_gate): Linear(in_features=300, out_features=150, bias=True)
    (buffers_dropout): Dropout(p=0.5, inplace=False)
  )
  (output_layer): Sequential(
    (0): Dropout(p=0.5, inplace=False)
    (1): Linear(in_features=150, out_features=5, bias=True)
  )
)",776.2173631191254,58515,2024-12-10 13:10:12.475269
